# parameters
nc: 1000  # number of classes
depth_multiple: 1.0  # model depth multiple
width_multiple: 1.0  # layer channel multiple
p5: True
ch: 3

sample_length: 16
sampling_rate: 5
head_dim: 2048
mean: [0.389, 0.379, 0.341] # UCF101
std: [0.279, 0.273, 0.275] # UCF101

backbone:
  # [from, number, module, args] c2, k=1, s=1, p=None, g=1, d=1, act=True
  [
    [ -1, 1, Conv3D, [ 24, [ 1, 3, 3 ],[ 1, 2, 2 ], [ 0, 1, 1 ], [ 1 ], [ 1 ],  None ] ],  
    [ -1, 1, Conv3D, [ 24, [ 5, 1, 1 ],[ 1, 1, 1 ], [ 2, 0, 0 ], [ 24 ], [ 1 ],  nn.ReLU() ] ],  
    [ -1, 1, ConvPathway1, [ 24, [ 1 ],[ 1, 2, 2 ], [ 0, 1, 1 ], [ 1 ], [ 1 ],  nn.ReLU() ] ],  

    [ -1, 1, subway, [ 24, [ 1 ],[ 1], [ 0 ], [ 1 ], [ 1 ],  nn.ReLU() ] ],  
    [ -1, 1, ConvPathway2, [ 24, [ 5, 1, 1 ],[ 1, 1, 1 ], [ 2, 0, 0 ], [ 1 ], [ 1 ],  nn.ReLU() ] ],  
    [ -1, 1, ConvPathway1, [ 48, [ 2 ],[ 1, 2, 2 ], [ 0, 1, 1 ], [ 1 ], [ 1 ],  nn.ReLU() ] ],  
    [ -1, 1, subway, [ 48, [ 1 ],[ 1 ], [ 0 ], [ 1 ], [ 1 ],  nn.ReLU() ] ],  

    [ -1, 1, ConvPathway2, [ 48, [ 5, 1, 1 ],[ 1, 1, 1 ], [ 2, 0, 0 ], [ 1 ], [ 1 ],  nn.ReLU() ] ],  
    [ -1, 1, subway, [ 48, [ 1 ],[ 1 ], [ 0 ], [ 1 ], [ 1 ],  nn.ReLU() ] ],  
    [ -1, 1, ConvPathway2, [ 48, [ 5, 1, 1 ],[ 1, 1, 1 ], [ 2, 0, 0 ], [ 1 ], [ 1 ],  nn.ReLU() ] ],  


    [ -1, 1, ConvPathway1, [ 96, [ 2 ],[ 1, 2, 2 ], [ 0, 1, 1 ], [ 1 ], [ 1 ],  nn.ReLU() ] ],  
    [ -1, 1, subway, [ 96, [ 1 ],[ 1 ], [ 0 ], [ 1 ], [ 1 ],  nn.ReLU() ] ],  
    [ -1, 1, ConvPathway2, [ 96, [ 5, 1, 1 ],[ 1, 1, 1 ], [ 2, 0, 0 ], [ 1 ], [ 1 ],  nn.ReLU() ] ],  
    [ -1, 1, subway, [ 96, [ 1 ],[ 1 ], [ 0 ], [ 1 ], [ 1 ],  nn.ReLU() ] ],  


    [ -1, 1, ConvPathway2, [ 96, [ 5, 1, 1 ],[ 1, 1, 1 ], [ 2, 0, 0 ], [ 1 ], [ 1 ],  nn.ReLU() ] ],  
    [ -1, 1, subway, [ 96, [ 1 ],[ 1 ], [ 0 ], [ 1 ], [ 1 ],  nn.ReLU() ] ],  


    [ -1, 1, ConvPathway2, [ 96, [ 5, 1, 1 ],[ 1, 1, 1 ], [ 2, 0, 0 ], [ 1 ], [ 1 ],  nn.ReLU() ] ],  
    [ -1, 1, subway, [ 96, [ 1 ],[ 1 ], [ 0 ], [ 1 ], [ 1 ],  nn.ReLU() ] ],  


    [ -1, 1, ConvPathway1, [ 192, [ 2 ],[ 1, 2, 2 ], [ 0, 1, 1 ], [ 1 ], [ 1 ],  nn.ReLU() ] ],  
    [ -1, 1, subway, [ 192, [ 1 ],[ 1 ], [ 0 ], [ 1 ], [ 1 ],  nn.ReLU() ] ],  

    [ -1, 1, ConvPathway2, [ 192, [ 5, 1, 1 ],[ 1, 1, 1 ], [ 2, 0, 0 ], [ 1 ], [ 1 ],  nn.ReLU() ] ],  
    [ -1, 1, subway, [ 192, [ 1 ],[ 1 ], [ 0 ], [ 1 ], [ 1 ],  nn.ReLU() ] ],  


    [ -1, 1, ConvPathway2, [ 192, [ 5, 1, 1 ],[ 1, 1, 1 ], [ 2, 0, 0 ], [ 1 ], [ 1 ],  nn.ReLU() ] ],  
    [ -1, 1, subway, [ 192, [ 1 ],[ 1 ], [ 0 ], [ 1 ], [ 1 ],  nn.ReLU() ] ],  
    [ -1, 1, ConvPathway2, [ 192, [ 5, 1, 1 ],[ 1, 1, 1 ], [ 2, 0, 0 ], [ 1 ], [ 1 ],  nn.ReLU() ] ],  

    [ -1, 1, Conv3D, [ 432, [ 1, 1, 1 ],[ 1, 1, 1 ], [ 0, 0, 0 ], [ 1 ], [ 1 ],  nn.ReLU() ] ],  

  ]

head:
  [
    [ [ -1 ], 1, Classify3D, [ nc , head_dim] ]
  ]
