# parameters
nc: 1000  # number of classes
depth_multiple: 1.0  # model depth multiple
width_multiple: 1.0  # layer channel multiple
p5: True
ch: 3
sub_sample: 9
step: 3
# anchors
anchors:
  - [ 29,39,  77,40,  41,80 ]  # P3/8
  - [ 117,44,  107,60,  69,96 ]  # P4/16
  - [ 120,96,  105,198,  178,244 ]  # P5/32

# yolov7-tiny backbone
backbone:
  # [from, number, module, args] c2, k=1, s=1, p=None, g=1, d=1, act=True
  [
    [ -1, 1, Conv3D_2P1, [ 32, [ 3, 3, 3 ],[ 1, 2, 2 ], [ None ], [ 1 ], [ 1 ],  nn.LeakyReLU(0.1) ] ],  # 0-P1/2
    [ -1, 1, Conv3D_2P1, [ 64, [ 3, 3, 3 ], [ 1, 2, 2 ], [ None ], [ 1 ], [ 1 ],  nn.LeakyReLU(0.1) ] ],  # 1-P2/4

    [ -1, 1, Conv3D, [ 32, [ 1 ], [ 1 ], [ None ], [ 1 ], [ 1 ],  nn.LeakyReLU(0.1) ] ],
    [ -2, 1, Conv3D, [ 32, [ 1 ], [ 1 ], [ None ], [ 1 ], [ 1 ],  nn.LeakyReLU(0.1) ] ],
    [ -1, 1, Conv3D_2P1, [ 32, [ 3, 3, 3 ], [ 1 ], [ None ], [ 1 ], [ 1 ],  nn.LeakyReLU(0.1) ] ],
    [ -1, 1, Conv3D_2P1, [ 32, [ 3, 3, 3 ], [ 1 ], [ None ], [ 1 ], [ 1 ],  nn.LeakyReLU(0.1) ] ],
    [ [ -1, -2, -3, -4 ], 1, Concat, [ 1 ] ],
    [ -1, 1, Conv3D, [ 64, [ 1 ], [ 1 ], [ None ], [ 1 ], [ 1 ],  nn.LeakyReLU(0.1) ] ],  # 7

    [ -1, 1, MP3D, [ ] ],  # 8-P3/8
    [ -1, 1, Conv3D, [ 64, [ 1 ], [ 1 ], [ None ], [ 1 ], [ 1 ],  nn.LeakyReLU(0.1) ] ],
    [ -2, 1, Conv3D, [ 64, [ 1 ], [ 1 ], [ None ], [ 1 ], [ 1 ],  nn.LeakyReLU(0.1) ] ],
    [ -1, 1, Conv3D_2P1, [ 64, [ 3, 3, 3 ], [ 1 ], [ None ], [ 1 ], [ 1 ],  nn.LeakyReLU(0.1) ] ],
    [ -1, 1, Conv3D_2P1, [ 64, [ 3, 3, 3 ], [ 1 ], [ None ], [ 1 ], [ 1 ],  nn.LeakyReLU(0.1) ] ],
    [ [ -1, -2, -3, -4 ], 1, Concat, [ 1 ] ],
    [ -1, 1, Conv3D, [ 128, [ 1 ], [ 1 ], [ None ], [ 1 ], [ 1 ],  nn.LeakyReLU(0.1) ] ],  # 14

    [ -1, 1, MP3D, [ ] ],  # 15-P4/16
    [ -1, 1, Conv3D, [ 128, [ 1 ], [ 1 ], [ None ], [ 1 ], [ 1 ],  nn.LeakyReLU(0.1) ] ],
    [ -2, 1, Conv3D, [ 128, [ 1 ], [ 1 ], [ None ], [ 1 ], [ 1 ],  nn.LeakyReLU(0.1) ] ],
    [ -1, 1, Conv3D_2P1, [ 128, [ 3, 3, 3 ], [ 1 ], [ None ], [ 1 ], [ 1 ],  nn.LeakyReLU(0.1) ] ],
    [ -1, 1, Conv3D_2P1, [ 128, [ 3, 3, 3 ], [ 1 ], [ None ], [ 1 ], [ 1 ],  nn.LeakyReLU(0.1) ] ],
    [ [ -1, -2, -3, -4 ], 1, Concat, [ 1 ] ],
    [ -1, 1, Conv3D, [ 256, [ 1 ], [ 1 ], [ None ], [ 1 ], [ 1 ],  nn.LeakyReLU(0.1) ] ],  # 21

    [ -1, 1, MP3D, [ ] ],  # 22-P5/32
    [ -1, 1, Conv3D, [ 256, [ 1 ], [ 1 ], [ None ], [ 1 ], [ 1 ],  nn.LeakyReLU(0.1) ] ],
    [ -2, 1, Conv3D, [ 256, [ 1 ], [ 1 ], [ None ], [ 1 ], [ 1 ],  nn.LeakyReLU(0.1) ] ],
    [ -1, 1, Conv3D_2P1, [ 256, [ 3, 3, 3 ], [ 1 ], [ None ], [ 1 ], [ 1 ],  nn.LeakyReLU(0.1) ] ],
    [ -1, 1, Conv3D_2P1, [ 256, [ 3, 3, 3 ], [ 1 ], [ None ], [ 1 ], [ 1 ],  nn.LeakyReLU(0.1) ] ],
    [ [ -1, -2, -3, -4 ], 1, Concat, [ 1 ] ],
    [ -1, 1, Conv3D, [ 512, [ 1 ], [ 1 ], [ None ], [ 1 ], [ 1 ],  nn.LeakyReLU(0.1) ] ],  # 28
  ]

# yolov7-tiny head
head:
  [ [ -1, 1, Conv3D, [ 256, [ 1 ], [ 1 ], [ None ], [ 1 ], [ 1 ],  nn.LeakyReLU(0.1) ] ],
    [ -2, 1, Conv3D, [ 256, [ 1 ], [ 1 ], [ None ], [ 1 ], [ 1 ],  nn.LeakyReLU(0.1) ] ],
    [ -1, 1, SP3D, [ 5 ] ],
    [ -2, 1, SP3D, [ 9 ] ],
    [ -3, 1, SP3D, [ 13 ] ],
    [ [ -1, -2, -3, -4 ], 1, Concat, [ 1 ] ],
    [ -1, 1, Conv3D, [ 256, [ 1 ], [ 1 ], [ None ], [ 1 ], [ 1 ],  nn.LeakyReLU(0.1) ] ],
    [ [ -1, -7 ], 1, Concat, [ 1 ] ],
    [ -1, 1, Conv3D, [ 256, [ 1 ], [ 1 ], [ None ], [ 1 ], [ 1 ],  nn.LeakyReLU(0.1) ] ],  # 37

    [ -1, 1, Conv3D, [ 128, [ 1 ], [ 1 ], [ None ], [ 1 ], [ 1 ],  nn.LeakyReLU(0.1) ] ],
    [ -1, 1, nn.Upsample, [ None, [ 1, 2, 2 ], 'nearest' ] ],
    [ 21, 1, Conv3D, [ 128, [ 1 ], [ 1 ], [ None ], [ 1 ], [ 1 ],  nn.LeakyReLU(0.1) ] ], # route backbone P4
    [ [ -1, -2 ], 1, Concat, [ 1 ] ],

    [ -1, 1, Conv3D, [ 64, [ 1 ], [ 1 ], [ None ], [ 1 ], [ 1 ],  nn.LeakyReLU(0.1) ] ],
    [ -2, 1, Conv3D, [ 64, [ 1 ], [ 1 ], [ None ], [ 1 ], [ 1 ],  nn.LeakyReLU(0.1) ] ],
    [ -1, 1, Conv3D_2P1, [ 64, [ 3, 3, 3 ], [ 1 ], [ None ], [ 1 ], [ 1 ],  nn.LeakyReLU(0.1) ] ],
    [ -1, 1, Conv3D_2P1, [ 64, [ 3, 3, 3 ], [ 1 ], [ None ], [ 1 ], [ 1 ],  nn.LeakyReLU(0.1) ] ],
    [ [ -1, -2, -3, -4 ], 1, Concat, [ 1 ] ],
    [ -1, 1, Conv3D, [ 128, [ 1 ], [ 1 ], [ None ], [ 1 ], [ 1 ],  nn.LeakyReLU(0.1) ] ],  # 47

    [ -1, 1, Conv3D, [ 64, [ 1 ], [ 1 ], [ None ], [ 1 ], [ 1 ],  nn.LeakyReLU(0.1) ] ],
    [ -1, 1, nn.Upsample, [ None, [ 1, 2, 2 ], 'nearest' ] ],
    [ 14, 1, Conv3D, [ 64, [ 1 ], [ 1 ], [ None ], [ 1 ], [ 1 ],  nn.LeakyReLU(0.1) ] ], # route backbone P3
    [ [ -1, -2 ], 1, Concat, [ 1 ] ],

    [ -1, 1, Conv3D, [ 32, [ 1 ], [ 1 ], [ None ], [ 1 ], [ 1 ],  nn.LeakyReLU(0.1) ] ],
    [ -2, 1, Conv3D, [ 32, [ 1 ], [ 1 ], [ None ], [ 1 ], [ 1 ],  nn.LeakyReLU(0.1) ] ],
    [ -1, 1, Conv3D_2P1, [ 32, [ 3, 3, 3 ], [ 1 ], [ None ], [ 1 ], [ 1 ],  nn.LeakyReLU(0.1) ] ],
    [ -1, 1, Conv3D_2P1, [ 32, [ 3, 3, 3 ], [ 1 ], [ None ], [ 1 ], [ 1 ],  nn.LeakyReLU(0.1) ] ],
    [ [ -1, -2, -3, -4 ], 1, Concat, [ 1 ] ],
    [ -1, 1, Conv3D, [ 64, [ 1 ], [ 1 ], [ None ], [ 1 ], [ 1 ],  nn.LeakyReLU(0.1) ] ],  # 57

    [ -1, 1, Conv3D_2P1, [ 128, [ 3, 3, 3 ], [ 1,2, 2 ], [ None ], [ 1 ], [ 1 ],  nn.LeakyReLU(0.1) ] ],
    [ [ -1, 47 ], 1, Concat, [ 1 ] ],

    [ -1, 1, Conv3D, [ 64, [ 1 ], [ 1 ], [ None ], [ 1 ], [ 1 ],  nn.LeakyReLU(0.1) ] ],
    [ -2, 1, Conv3D, [ 64, [ 1 ], [ 1 ], [ None ], [ 1 ], [ 1 ],  nn.LeakyReLU(0.1) ] ],
    [ -1, 1, Conv3D_2P1, [ 64, [ 3, 3, 3 ], [ 1 ], [ None ], [ 1 ], [ 1 ],  nn.LeakyReLU(0.1) ] ],
    [ -1, 1, Conv3D_2P1, [ 64, [ 3, 3, 3 ], [ 1 ], [ None ], [ 1 ], [ 1 ],  nn.LeakyReLU(0.1) ] ],
    [ [ -1, -2, -3, -4 ], 1, Concat, [ 1 ] ],
    [ -1, 1, Conv3D, [ 128, [ 1 ], [ 1 ], [ None ], [ 1 ], [ 1 ],  nn.LeakyReLU(0.1) ] ],  # 65

    [ -1, 1, Conv3D_2P1, [ 256, [ 3, 3, 3 ], [ 1, 2, 2 ], [ None ], [ 1 ], [ 1 ],  nn.LeakyReLU(0.1) ] ],
    [ [ -1, 37 ], 1, Concat, [ 1 ] ],

    [ -1, 1, Conv3D, [ 128, [ 1 ], [ 1 ], [ None ], [ 1 ], [ 1 ],  nn.LeakyReLU(0.1) ] ],
    [ -2, 1, Conv3D, [ 128, [ 1 ], [ 1 ], [ None ], [ 1 ], [ 1 ],  nn.LeakyReLU(0.1) ] ],
    [ -1, 1, Conv3D_2P1, [ 128, [ 3, 3, 3 ], [ 1 ], [ None ], [ 1 ], [ 1 ],  nn.LeakyReLU(0.1) ] ],
    [ -1, 1, Conv3D_2P1, [ 128, [ 3, 3, 3 ], [ 1 ], [ None ], [ 1 ], [ 1 ],  nn.LeakyReLU(0.1) ] ],
    [ [ -1, -2, -3, -4 ], 1, Concat, [ 1 ] ],
    [ -1, 1, Conv3D, [ 256, [ 1 ], [ 1 ], [ None ], [ 1 ], [ 1 ],  nn.LeakyReLU(0.1) ] ],  # 73

    [ 57, 1, Conv3D_2P1, [ 128, [ 3 ], [ 1 ], [ None ], [ 1 ], [ 1 ],  nn.LeakyReLU(0.1) ] ],
    [ 65, 1, Conv3D_2P1, [ 256, [ 3, 3, 3 ], [ 1 ], [ None ], [ 1 ], [ 1 ],  nn.LeakyReLU(0.1) ] ],
    [ 73, 1, Conv3D_2P1, [ 512, [ 3, 3, 3 ], [ 1 ], [ None ], [ 1 ], [ 1 ],  nn.LeakyReLU(0.1) ] ],

    [ [ 76 ], 1, Classify3D, [ nc ] ],   # Detect(P3, P4, P5)
  ]
