Overriding model.yaml nc=80 with nc=1
                 from  n    params  module                                  arguments
  0                -1  1       928  models.common.Conv                      [3, 32, 3, 2]
  1                -1  1     18560  models.common.Conv                      [32, 64, 3, 2]
  2                -1  1      2112  models.common.Conv                      [64, 32, 1, 1]
  3                -2  1      2112  models.common.Conv                      [64, 32, 1, 1]
  4                -1  1      9280  models.common.Conv                      [32, 32, 3, 1]
  5                -1  1      9280  models.common.Conv                      [32, 32, 3, 1]
  6  [-1, -2, -3, -4]  1         0  models.common.Concat                    [1]
  7                -1  1      8320  models.common.Conv                      [128, 64, 1, 1]
  8                -1  1         0  models.common.MP                        []
  9                -1  1      4224  models.common.Conv                      [64, 64, 1, 1]
 10                -2  1      4224  models.common.Conv                      [64, 64, 1, 1]
 11                -1  1     36992  models.common.Conv                      [64, 64, 3, 1]
 12                -1  1     36992  models.common.Conv                      [64, 64, 3, 1]
 13  [-1, -2, -3, -4]  1         0  models.common.Concat                    [1]
 14                -1  1     33024  models.common.Conv                      [256, 128, 1, 1]
 15                -1  1         0  models.common.MP                        []
 16                -1  1     16640  models.common.Conv                      [128, 128, 1, 1]
 17                -2  1     16640  models.common.Conv                      [128, 128, 1, 1]
 18                -1  1    147712  models.common.Conv                      [128, 128, 3, 1]
 19                -1  1    147712  models.common.Conv                      [128, 128, 3, 1]
 20  [-1, -2, -3, -4]  1         0  models.common.Concat                    [1]
 21                -1  1    131584  models.common.Conv                      [512, 256, 1, 1]
 22                -1  1         0  models.common.MP                        []
 23                -1  1     66048  models.common.Conv                      [256, 256, 1, 1]
 24                -2  1     66048  models.common.Conv                      [256, 256, 1, 1]
 25                -1  1    590336  models.common.Conv                      [256, 256, 3, 1]
 26                -1  1    590336  models.common.Conv                      [256, 256, 3, 1]
 27  [-1, -2, -3, -4]  1         0  models.common.Concat                    [1]
 28                -1  1    525312  models.common.Conv                      [1024, 512, 1, 1]
 29                -1  1    131584  models.common.Conv                      [512, 256, 1, 1]
 30                -2  1    131584  models.common.Conv                      [512, 256, 1, 1]
 31                -1  1         0  models.common.SP                        [5]
 32                -2  1         0  models.common.SP                        [9]
 33                -3  1         0  models.common.SP                        [13]
 34  [-1, -2, -3, -4]  1         0  models.common.Concat                    [1]
 35                -1  1    262656  models.common.Conv                      [1024, 256, 1, 1]
 36          [-1, -7]  1         0  models.common.Concat                    [1]
 37                -1  1    131584  models.common.Conv                      [512, 256, 1, 1]
 38                -1  1     33024  models.common.Conv                      [256, 128, 1, 1]
 39                -1  1         0  torch.nn.modules.upsampling.Upsample    [None, 2, 'nearest']
 40                21  1     33024  models.common.Conv                      [256, 128, 1, 1]
 41          [-1, -2]  1         0  models.common.Concat                    [1]
 42                -1  1     16512  models.common.Conv                      [256, 64, 1, 1]
 43                -2  1     16512  models.common.Conv                      [256, 64, 1, 1]
 44                -1  1     36992  models.common.Conv                      [64, 64, 3, 1]
 45                -1  1     36992  models.common.Conv                      [64, 64, 3, 1]
 46  [-1, -2, -3, -4]  1         0  models.common.Concat                    [1]
 47                -1  1     33024  models.common.Conv                      [256, 128, 1, 1]
 48                -1  1      8320  models.common.Conv                      [128, 64, 1, 1]
 49                -1  1         0  torch.nn.modules.upsampling.Upsample    [None, 2, 'nearest']
 50                14  1      8320  models.common.Conv                      [128, 64, 1, 1]
 51          [-1, -2]  1         0  models.common.Concat                    [1]
 52                -1  1      4160  models.common.Conv                      [128, 32, 1, 1]
 53                -2  1      4160  models.common.Conv                      [128, 32, 1, 1]
 54                -1  1      9280  models.common.Conv                      [32, 32, 3, 1]
 55                -1  1      9280  models.common.Conv                      [32, 32, 3, 1]
 56  [-1, -2, -3, -4]  1         0  models.common.Concat                    [1]
 57                -1  1      8320  models.common.Conv                      [128, 64, 1, 1]
 58                -1  1     73984  models.common.Conv                      [64, 128, 3, 2]
 59          [-1, 47]  1         0  models.common.Concat                    [1]
 60                -1  1     16512  models.common.Conv                      [256, 64, 1, 1]
 61                -2  1     16512  models.common.Conv                      [256, 64, 1, 1]
 62                -1  1     36992  models.common.Conv                      [64, 64, 3, 1]
 63                -1  1     36992  models.common.Conv                      [64, 64, 3, 1]
 64  [-1, -2, -3, -4]  1         0  models.common.Concat                    [1]
 65                -1  1     33024  models.common.Conv                      [256, 128, 1, 1]
 66                -1  1    295424  models.common.Conv                      [128, 256, 3, 2]
 67          [-1, 37]  1         0  models.common.Concat                    [1]
 68                -1  1     65792  models.common.Conv                      [512, 128, 1, 1]
 69                -2  1     65792  models.common.Conv                      [512, 128, 1, 1]
 70                -1  1    147712  models.common.Conv                      [128, 128, 3, 1]
 71                -1  1    147712  models.common.Conv                      [128, 128, 3, 1]
 72  [-1, -2, -3, -4]  1         0  models.common.Concat                    [1]
 73                -1  1    131584  models.common.Conv                      [512, 256, 1, 1]
 74                57  1     73984  models.common.Conv                      [64, 128, 3, 1]
 75                65  1    295424  models.common.Conv                      [128, 256, 3, 1]
 76                73  1   1180672  models.common.Conv                      [256, 512, 3, 1]
 77      [74, 75, 76]  1     17132  models.yolo.IDetect                     [1, [[10, 13, 16, 30, 33, 23], [30, 61, 62, 45, 59, 119], [116, 90, 156, 198, 373, 326]], [128, 256, 512]]
C:\Users\thanh\AppData\Local\Programs\Python\Python310\lib\site-packages\torch\functional.py:478: UserWarning: torch.meshgrid: in an upcoming release, it will be required to pass the indexing argument. (Triggered internally at  ..\aten\src\ATen\native\TensorShape.cpp:2895.)
…
